results/tuning/trial_3/best_model.pth (torch, 598133 bytes, 12 tensors)

model.0.weight f4 [256, 19]
0	0x3e82ed97	0.25571892
1	0xbdc1c7a2	-0.09461905
2	0x3ee3e6a0	0.4451189
3	0xbd5b1417	-0.053485956
4	0xbe48322d	-0.1955039
5	0xbecd5d86	-0.40110415
6	0x3f0681b2	0.5254165
7	0xbd102678	-0.035192937
8	0xbe8d0bca	-0.27548057
9	0x3ec7c9ff	0.39021298
10	0xbe04b5d0	-0.12959981
11	0xbea49926	-0.32148093
12	0xbeb64d56	-0.35605878
13	0xbd0562c2	-0.032564886
14	0xbc51801b	-0.01278689
15	0xbd0e9c2b	-0.034816902
16	0xbe6e02ed	-0.23243304
17	0x3ec7f781	0.39056018
18	0x3e18dd9b	0.14928286
19	0x3e725fb8	0.23669326
20	0x3e12b224	0.14325768
21	0x3e699e02	0.22814181
22	0x3ea18393	0.31545696
23	0x3d401592	0.04689557
24	0xbd20ab19	-0.03922567
25	0x3eac26ee	0.3362345
26	0x3f3ca6f0	0.73692226
27	0x3b9734f5	0.0046144673
28	0xbeaad95f	-0.33368966
29	0xbeb49088	-0.3526652
30	0x3e396ac1	0.1810713
31	0xbe11a3a6	-0.14222583
32	0x3d5e4844	0.054268137
33	0x3d66f15d	0.056382526
34	0x3e39f41e	0.1815953
35	0x3db69d13	0.08916678
36	0x3f0bbc71	0.54584414
37	0x3ea66f24	0.3250667
38	0x3b399d31	0.0028322453
39	0x3e3474d8	0.17622697
40	0x3e5a81bd	0.21338554
41	0xbcfcc3e1	-0.030855121
42	0x3de4a144	0.111635715
43	0xbeef5e87	-0.46751806
44	0xbecbf8be	-0.39838213
45	0xbeffa86b	-0.4993318
46	0xbc8ab769	-0.01693316
47	0xbdfc8aaa	-0.123311356
48	0xbf15dc8e	-0.58539665
49	0xbf4bc473	-0.7959663
50	0xbf0120a5	-0.50440437
51	0xbeb05d4b	-0.34446177
52	0xbb8016f7	-0.0039089876
53	0x3e73a18f	0.23792098
54	0x3e27ca08	0.16385663
55	0x3e4027a2	0.18765119
56	0x3e638cbd	0.22221656
57	0xbf13d14d	-0.5774124
58	0x3eab887b	0.33502564
59	0x3ef9e90e	0.4881062
60	0x3eb96c72	0.3621555
61	0xbdffa8f3	-0.124833964
62	0x3e321756	0.17391714
63	0xbeb035df	-0.344161
64	0x3f0cd204	0.5500796
65	0x3e272077	0.16320978
66	0x3e2e5fdb	0.17028753
67	0xbd8dfdf6	-0.06933205
68	0x3e3bf01d	0.18353315
69	0x3e8a207b	0.26977906
70	0x3ebbaa0c	0.36653173
71	0xbaa736e7	-0.0012757451
72	0x3dac777e	0.08421229
73	0xbefbc6cd	-0.4917511
74	0x3f4f34ad	0.8093975
75	0x3e673868	0.22580111
76	0xbe25a88d	-0.16177578
77	0xbeb74e6c	-0.3580202
78	0x3e0c5895	0.13705666
79	0xbdf7ec25	-0.12105588
80	0x3e7c87bd	0.24661155
81	0x3e658273	0.22413044
82	0xbcd24629	-0.02566822
83	0xbe0537ea	-0.13009611
84	0xbd0cb0e0	-0.03434837
85	0x3df37e2c	0.118893
86	0x3d14760b	0.036245387
87	0xbe0c19cc	-0.13681716
88	0xbe1aab80	-0.15104485
89	0xbaddd509	-0.0016924451
90	0xbdf043cd	-0.11731682
91	0xbe583dc5	-0.21117313
92	0xbd8666e9	-0.06562597
93	0xbe3930b4	-0.18084985
94	0x3eba0e6e	0.36339134
95	0xbdfd7945	-0.12376646
96	0xbd812cf6	-0.06307404
97	0x3e4abd44	0.19798762
98	0xbda590ca	-0.08084257
99	0x3e8a49cd	0.2700943
100	0xbecde4e2	-0.40213686
101	0xbe235116	-0.159489
102	0xbf0f6433	-0.56012267
103	0xbd990b87	-0.07472902
104	0x3f0467eb	0.51721066
105	0xbe851752	-0.25994354
106	0x3e2ae359	0.16688289
107	0xbf29b5b8	-0.66292906
108	0xbe08109a	-0.13287583
109	0xbefd8f41	-0.49523357
110	0x3f105a4e	0.56387794
111	0xbed8d576	-0.42350358
112	0x3ee1549f	0.44009873
113	0x3ede7065	0.43445125
114	0xbed6c7ab	-0.4194921
115	0xbf0c950d	-0.54914933
116	0x3e9d5e97	0.3073623
117	0x3e7a1faa	0.24426141
118	0x3e4c8c9b	0.19975512
119	0x3eebcf99	0.46056822
120	0xbe497304	-0.19672781
121	0xbef0b7b2	-0.47015148
122	0x3e4302da	0.19044057
123	0xbe797f36	-0.24364933
124	0xbdc33a5b	-0.09532615
125	0x3ea1a200	0.3156891
126	0x3d8966e9	0.06709082
127	0x3d970c51	0.07375396
128	0x3f18177f	0.5941085
129	0xbe47d94d	-0.19516487
130	0xbeb42215	-0.35182253
131	0xbe3a7550	-0.18208814
132	0xbc3b49eb	-0.011431198
133	0xbeaad78b	-0.3336757
134	0x3da95b97	0.082694225
135	0xbb35da02	-0.002774835
136	0x3ed30313	0.41213283
137	0x3e06882c	0.13137883
138	0xbb86e754	-0.004116932
139	0xbe51ba48	-0.20481217
140	0xbf2cefde	-0.6755351
141	0xbe8b48a2	-0.27203852
142	0x3ebcaebd	0.36852065
143	0x3e8116f3	0.2521282
144	0xbedfefa0	-0.43737507
145	0xbe4534bf	-0.19258402
146	0x3db82a26	0.08992414
147	0x3ec70670	0.388721
148	0xbcdc50f4	-0.02689407
149	0xbdc9d856	-0.09855716
150	0xbe4040aa	-0.18774667
151	0xbda8e855	-0.08247439
152	0x3de90ebc	0.113797635
153	0xbe1e23cb	-0.15443341
154	0x3de037d0	0.109481454
155	0xbe0b7f0a	-0.1362268
156	0xbd4cb4d4	-0.04997714
157	0x3ee83620	0.45353794
158	0xbe6d0f97	-0.23150478
159	0x3e6fd908	0.23422635
160	0xbe477118	-0.19476736
161	0x3de3a79b	0.111159526
162	0xbe1fd611	-0.15609004
163	0x3eed6683	0.46367273
164	0xbf302f53	-0.6882221
165	0xbe0d632a	-0.1380736
166	0xbbc98e83	-0.006151022
167	0xbebcf74f	-0.3690743
168	0xbf418d37	-0.756061
169	0x3df94345	0.12171034
170	0xbe89535d	-0.26821414
171	0x3ea07971	0.31342652
172	0x3e942b7b	0.28939423
173	0x3e38f2a7	0.18061315
174	0x3e916ed6	0.28404874
175	0xbda58c8c	-0.08083448
176	0xbdceb5c4	-0.10093263
177	0xbe15d460	-0.14631796
178	0xbe3e118e	-0.18561384
179	0xbe16aeb5	-0.14715083
180	0x3e9ab6e3	0.30217656
181	0x3f0e0e1e	0.5549029
182	0xbe07592d	-0.13217612
183	0x3d6d7aac	0.057978317
184	0xbeba803f	-0.3642597
185	0xbe733dfc	-0.23754114
186	0x3eb7f08f	0.3592572
187	0xbd42a701	-0.04752255
188	0xbe9cafca	-0.30602866
189	0x3e03365a	0.12813702
190	0xbe54def3	-0.20788173
191	0x3e91bad8	0.28462863
192	0x3e47770e	0.1947901
193	0x3e4c7506	0.19966516
194	0x3e253ea3	0.16137175
195	0x3ead3959	0.33832815
196	0x3ed8835c	0.4228772
197	0x3ea804da	0.328162
198	0x3f27beb2	0.6552535
199	0xbdd5fb7f	-0.1044836
200	0x3de0295c	0.10945389
201	0xbd81f86c	-0.06346211
202	0x3d3a8fdb	0.045547348
203	0x3e264628	0.162377
204	0xbd84c8e7	-0.064836316
205	0x3ed14fd0	0.40881205
206	0x3d068fdd	0.032852042
207	0xbe37ab2c	-0.1793639
208	0x3f0a5cde	0.54047954
209	0xbca91d40	-0.02064383
210	0x3f060e5d	0.52365667
211	0xbf044b2e	-0.51677215
212	0x3eca5eb6	0.39525384
213	0x3f124f04	0.5715182
214	0xbb569c1b	-0.0032746855
215	0xbc5e4d1c	-0.013568189
216	0xbeb668fa	-0.35626966
217	0xbca3fd7c	-0.020018332
218	0x3f16c780	0.5889816
219	0xbe346f55	-0.17620595
220	0x3ec111d6	0.3770892
221	0x3eb5ee0c	0.35533178
222	0x3d08740b	0.033313792
223	0x3d066a1a	0.03281603
224	0xbc9130eb	-0.017723521
225	0xbf2a7bf0	-0.66595364
226	0xbe255334	-0.1614502
227	0x3ec14b56	0.3775279
228	0x3dc0ccb6	0.094140455
229	0x3d4de59d	0.050267804
230	0xbf160848	-0.58606386
231	0x3e77b721	0.24190952
232	0xbe748113	-0.23877363
233	0x3e6931bd	0.2277288
234	0x3e07160e	0.13192007
235	0xbf350d5e	-0.7072352
236	0x3caaa249	0.020829337
237	0xbe88a6dd	-0.26689807
238	0xbea7162b	-0.326341
239	0x3ea8fcbb	0.33005318
240	0xbedac585	-0.4272882
241	0x3e1190b7	0.1421536
242	0xbeb1dbb9	-0.34737948
243	0x3d3364d8	0.043797344
244	0xbe376e72	-0.17913225
245	0x3d49f497	0.049305525
246	0x3eb1c32c	0.34719217
247	0x3f111377	0.56670326
248	0xbe5ce308	-0.2157098
249	0xbed095b2	-0.40739208
250	0xbeca3415	-0.3949286
251	0xbdda0341	-0.10645152
252	0xbe32a296	-0.17444834
253	0xbe3adaa2	-0.18247464
254	0x3ef41b9a	0.47677308
255	0x3f15b384	0.58477044

model.0.bias f4 [256]
0	0x00000000	0.0
1	0x00000000	0.0
2	0x00000000	0.0
3	0x00000000	0.0
4	0x00000000	0.0
5	0x00000000	0.0
6	0x00000000	0.0
7	0x00000000	0.0
8	0x00000000	0.0
9	0x00000000	0.0
10	0x00000000	0.0
11	0x00000000	0.0
12	0x00000000	0.0
13	0x00000000	0.0
14	0x00000000	0.0
15	0x00000000	0.0
16	0x00000000	0.0
17	0x00000000	0.0
18	0x00000000	0.0
19	0x00000000	0.0
20	0x00000000	0.0
21	0x00000000	0.0
22	0x00000000	0.0
23	0x00000000	0.0
24	0x00000000	0.0
25	0x00000000	0.0
26	0x00000000	0.0
27	0x00000000	0.0
28	0x00000000	0.0
29	0x00000000	0.0
30	0x00000000	0.0
31	0x00000000	0.0
32	0x00000000	0.0
33	0x00000000	0.0
34	0x00000000	0.0
35	0x00000000	0.0
36	0x00000000	0.0
37	0x00000000	0.0
38	0x00000000	0.0
39	0x00000000	0.0
40	0x00000000	0.0
41	0x00000000	0.0
42	0x00000000	0.0
43	0x00000000	0.0
44	0x00000000	0.0
45	0x00000000	0.0
46	0x00000000	0.0
47	0x00000000	0.0
48	0x00000000	0.0
49	0x00000000	0.0
50	0x00000000	0.0
51	0x00000000	0.0
52	0x00000000	0.0
53	0x00000000	0.0
54	0x00000000	0.0
55	0x00000000	0.0
56	0x00000000	0.0
57	0x00000000	0.0
58	0x00000000	0.0
59	0x00000000	0.0
60	0x00000000	0.0
61	0x00000000	0.0
62	0x00000000	0.0
63	0x00000000	0.0
64	0x00000000	0.0
65	0x00000000	0.0
66	0x00000000	0.0
67	0x00000000	0.0
68	0x00000000	0.0
69	0x00000000	0.0
70	0x00000000	0.0
71	0x00000000	0.0
72	0x00000000	0.0
73	0x00000000	0.0
74	0x00000000	0.0
75	0x00000000	0.0
76	0x00000000	0.0
77	0x00000000	0.0
78	0x00000000	0.0
79	0x00000000	0.0
80	0x00000000	0.0
81	0x00000000	0.0
82	0x00000000	0.0
83	0x00000000	0.0
84	0x00000000	0.0
85	0x00000000	0.0
86	0x00000000	0.0
87	0x00000000	0.0
88	0x00000000	0.0
89	0x00000000	0.0
90	0x00000000	0.0
91	0x00000000	0.0
92	0x00000000	0.0
93	0x00000000	0.0
94	0x00000000	0.0
95	0x00000000	0.0
96	0x00000000	0.0
97	0x00000000	0.0
98	0x00000000	0.0
99	0x00000000	0.0
100	0x00000000	0.0
101	0x00000000	0.0
102	0x00000000	0.0
103	0x00000000	0.0
104	0x00000000	0.0
105	0x00000000	0.0
106	0x00000000	0.0
107	0x00000000	0.0
108	0x00000000	0.0
109	0x00000000	0.0
110	0x00000000	0.0
111	0x00000000	0.0
112	0x00000000	0.0
113	0x00000000	0.0
114	0x00000000	0.0
115	0x00000000	0.0
116	0x00000000	0.0
117	0x00000000	0.0
118	0x00000000	0.0
119	0x00000000	0.0
120	0x00000000	0.0
121	0x00000000	0.0
122	0x00000000	0.0
123	0x00000000	0.0
124	0x00000000	0.0
125	0x00000000	0.0
126	0x00000000	0.0
127	0x00000000	0.0
128	0x00000000	0.0
129	0x00000000	0.0
130	0x00000000	0.0
131	0x00000000	0.0
132	0x00000000	0.0
133	0x00000000	0.0
134	0x00000000	0.0
135	0x00000000	0.0
136	0x00000000	0.0
137	0x00000000	0.0
138	0x00000000	0.0
139	0x00000000	0.0
140	0x00000000	0.0
141	0x00000000	0.0
142	0x00000000	0.0
143	0x00000000	0.0
144	0x00000000	0.0
145	0x00000000	0.0
146	0x00000000	0.0
147	0x00000000	0.0
148	0x00000000	0.0
149	0x00000000	0.0
150	0x00000000	0.0
151	0x00000000	0.0
152	0x00000000	0.0
153	0x00000000	0.0
154	0x00000000	0.0
155	0x00000000	0.0
156	0x00000000	0.0
157	0x00000000	0.0
158	0x00000000	0.0
159	0x00000000	0.0
160	0x00000000	0.0
161	0x00000000	0.0
162	0x00000000	0.0
163	0x00000000	0.0
164	0x00000000	0.0
165	0x00000000	0.0
166	0x00000000	0.0
167	0x00000000	0.0
168	0x00000000	0.0
169	0x00000000	0.0
170	0x00000000	0.0
171	0x00000000	0.0
172	0x00000000	0.0
173	0x00000000	0.0
174	0x00000000	0.0
175	0x00000000	0.0
176	0x00000000	0.0
177	0x00000000	0.0
178	0x00000000	0.0
179	0x00000000	0.0
180	0x00000000	0.0
181	0x00000000	0.0
182	0x00000000	0.0
183	0x00000000	0.0
184	0x00000000	0.0
185	0x00000000	0.0
186	0x00000000	0.0
187	0x00000000	0.0
188	0x00000000	0.0
189	0x00000000	0.0
190	0x00000000	0.0
191	0x00000000	0.0
192	0x00000000	0.0
193	0x00000000	0.0
194	0x00000000	0.0
195	0x00000000	0.0
196	0x00000000	0.0
197	0x00000000	0.0
198	0x00000000	0.0
199	0x00000000	0.0
200	0x00000000	0.0
201	0x00000000	0.0
202	0x00000000	0.0
203	0x00000000	0.0
204	0x00000000	0.0
205	0x00000000	0.0
206	0x00000000	0.0
207	0x00000000	0.0
208	0x00000000	0.0
209	0x00000000	0.0
210	0x00000000	0.0
211	0x00000000	0.0
212	0x00000000	0.0
213	0x00000000	0.0
214	0x00000000	0.0
215	0x00000000	0.0
216	0x00000000	0.0
217	0x00000000	0.0
218	0x00000000	0.0
219	0x00000000	0.0
220	0x00000000	0.0
221	0x00000000	0.0
222	0x00000000	0.0
223	0x00000000	0.0
224	0x00000000	0.0
225	0x00000000	0.0
226	0x00000000	0.0
227	0x00000000	0.0
228	0x00000000	0.0
229	0x00000000	0.0
230	0x00000000	0.0
231	0x00000000	0.0
232	0x00000000	0.0
233	0x00000000	0.0
234	0x00000000	0.0
235	0x00000000	0.0
236	0x00000000	0.0
237	0x00000000	0.0
238	0x00000000	0.0
239	0x00000000	0.0
240	0x00000000	0.0
241	0x00000000	0.0
242	0x00000000	0.0
243	0x00000000	0.0
244	0x00000000	0.0
245	0x00000000	0.0
246	0x00000000	0.0
247	0x00000000	0.0
248	0x00000000	0.0
249	0x00000000	0.0
250	0x00000000	0.0
251	0x00000000	0.0
252	0x00000000	0.0
253	0x00000000	0.0
254	0x00000000	0.0
255	0x00000000	0.0

model.2.weight f4 [256, 256]
0	0xbd74e494	-0.0597883
1	0x3c63dd92	0.013907807
2	0x3ce63ca4	0.028105088
3	0x3d9ad7aa	0.07560666
4	0x3d6179e0	0.05504787
5	0x3ce6f686	0.028193723
6	0x3d57bde2	0.05267132
7	0xbd68120d	-0.05665784
8	0xbce0fda1	-0.02746469
9	0x3d337feb	0.043823164
10	0x3dbdc4e4	0.092660695
11	0x3d88067e	0.06641863
12	0xbb948a0f	-0.0045330594
13	0xbdaba965	-0.08381919
14	0x3d30202d	0.042999435
15	0xbd26b823	-0.04070295
16	0x3d2b9bd3	0.041896652
17	0x3e0772df	0.13227414
18	0xbd25880b	-0.040412944
19	0x3e04ca5f	0.12967823
20	0x3df69141	0.12039424
21	0x3e64f0f4	0.22357541
22	0x3dd86b91	0.10567392
23	0x3e0c270c	0.1368677
24	0xbc4135b9	-0.011792594
25	0x3c9fd093	0.019508636
26	0x3e2afd4f	0.16698192
27	0x3b18b36d	0.0023300305
28	0x3dbeaf52	0.093107834
29	0x3e13a883	0.14419751
30	0xbcf0338f	-0.02932146
31	0x3d668bad	0.05628555
32	0x3de9c72b	0.114149414
33	0x3d19b4f1	0.037526075
34	0xbd20e923	-0.039284837
35	0xbe20c68b	-0.15700738
36	0xbe24e54a	-0.16103092
37	0x3bbe4e5d	0.0058076815
38	0xbd8da877	-0.06916898
39	0x3cfb5cf1	0.030683966
40	0xbda132fc	-0.078710526
41	0x3bbde0bc	0.0057946127
42	0xbe6559dc	-0.2239756
43	0xbda3484f	-0.07972776
44	0x3d92705b	0.07150336
45	0xbd76cec5	-0.060255785
46	0x3c258958	0.010103546
47	0x3cb52ce1	0.022116126
48	0xbc1dc863	-0.009630295
49	0xb98e70a9	-0.0002716829
50	0x3da511ba	0.08060022
51	0x3deb74fb	0.11496922
52	0xbe660427	-0.22462521
53	0xbb355fe1	-0.0027675556
54	0x3c64baad	0.013960523
55	0x3e09dae4	0.13462406
56	0x3e29550b	0.16536348
57	0xbd6a1f31	-0.057158653
58	0xbc385580	-0.011250854
59	0xbd3906dd	-0.04517256
60	0xbd018945	-0.03162505
61	0xbd027061	-0.031845454
62	0x3cfbb6f4	0.030726887
63	0x3e371279	0.1787814
64	0xbe132bd5	-0.1437219
65	0x3ce15204	0.027504928
66	0x3d8874af	0.06662881
67	0x3d82e8af	0.06392037
68	0xbd8811ee	-0.06644045
69	0x3d969d08	0.0735417
70	0x3c8b91a6	0.017037224
71	0xbc5463a9	-0.012963214
72	0xbca86e84	-0.02056051
73	0xbda96b13	-0.08272376
74	0x3da87cd1	0.08226932
75	0x3d19de88	0.037565738
76	0x3d2e6df5	0.042585332
77	0x3e4c223f	0.19934939
78	0xbce62f02	-0.028098587
79	0xbe085e01	-0.1331711
80	0x3d52f988	0.051507503
81	0x3dedd962	0.11613728
82	0x3c4f4449	0.012650558
83	0xbdbdee9e	-0.09274028
84	0xbd209236	-0.039201938
85	0x3dc2bc3b	0.09508558
86	0x399748b7	0.0002885514
87	0xbd258492	-0.040409632
88	0x3d681d78	0.05666873
89	0xbde9c6ec	-0.114148945
90	0x3cb37fb0	0.021911472
91	0xbdc3e1e7	-0.09564572
92	0x39b929ed	0.00035317187
93	0x3c711c17	0.01471617
94	0x3d8c4f66	0.068510816
95	0x3cde8f0e	0.027167823
96	0x3ca9a824	0.020710059
97	0xbd3bdc20	-0.045864224
98	0x3d6d7124	0.057969227
99	0xbdb5dd19	-0.08880062
100	0xbc5db281	-0.013531328
101	0xbd47a387	-0.048739936
102	0xbdc6785f	-0.09690928
103	0x3db3310b	0.087495886
104	0xbda0e23b	-0.0785565
105	0xbc5fe4af	-0.013665362
106	0xbd9d5071	-0.076813586
107	0xbdb2c36c	-0.0872868
108	0x3dfdce3b	0.12392851
109	0xbdbab127	-0.091158204
110	0xbdd6c868	-0.10487443
111	0xbde436ba	-0.11143251
112	0x3dbbc722	0.09168841
113	0xbcdc79da	-0.026913572
114	0xbc4491f4	-0.011997689
115	0xbc963936	-0.018337827
116	0x3d462088	0.048370868
117	0xbbd9d48d	-0.0066476525
118	0xbd872293	-0.065983914
119	0xbddcdf16	-0.10784738
120	0x3e7a19a1	0.24423839
121	0xbdb33022	-0.08749415
122	0x3c03bc93	0.008040565
123	0xbd533708	-0.051566154
124	0x3dbc8dc7	0.092067294
125	0x3d85a1d8	0.0652501
126	0xbda6c4ba	-0.08142991
127	0xbd6d1292	-0.05787904
128	0x3e330133	0.17480926
129	0x3c922d01	0.017843725
130	0xbc3aa415	-0.011391659
131	0xbd7f08c8	-0.062264234
132	0x3e10c879	0.14138974
133	0x3c88f2de	0.01671737
134	0x3d06160c	0.03273587
135	0xbdfea602	-0.12434007
136	0x3e0f47ad	0.13992186
137	0x3de6a04e	0.112610444
138	0xbde8d611	-0.11368955
139	0xbd89d901	-0.06730843
140	0xbe1c9434	-0.1529091
141	0xbdd2a9ec	-0.10286316
142	0xbd30b501	-0.04314137
143	0x3d45ce49	0.048292432
144	0x3ca1f24d	0.019768858
145	0x3e060fa9	0.13091911
146	0x3d9b397e	0.07579325
147	0x3d806b1c	0.062704295
148	0xbdd48252	-0.10376419
149	0xbd94046b	-0.07227405
150	0x3e18dc27	0.14927731
151	0xbd98e949	-0.074663706
152	0xbd595a97	-0.05306491
153	0xbccbbfb0	-0.024871677
154	0xbd9659ea	-0.073413685
155	0xbd03ad67	-0.03214779
156	0x3d853c2f	0.0650562
157	0xbdf865aa	-0.12128766
158	0xbdf351a2	-0.118808046
159	0x3d60fb0e	0.054926924
160	0x3e0b0746	0.13576993
161	0xbdceb401	-0.10092927
162	0xbdb656f8	-0.08903307
163	0x3d84f8b8	0.06492752
164	0x3d81aedd	0.06332181
165	0xb9d9c16a	-0.0004153357
166	0xbc22bbdf	-0.009932487
167	0x3de47f0a	0.11157043
168	0x3dc95f74	0.09832659
169	0xbdce1960	-0.10063434
170	0xbc925a2c	-0.017865263
171	0xbd2e600f	-0.042572077
172	0x3cdc52a0	0.026894867
173	0x3e0506dd	0.129909
174	0x3de9d8f2	0.11418332
175	0xbd0643f4	-0.03277965
176	0x3bdb7903	0.0066977753
177	0xb965e808	-0.0002192558
178	0xbdf2515b	-0.118319236
179	0x3c8c33b3	0.017114496
180	0x3dd32478	0.1030969
181	0xbbcc54c8	-0.0062356927
182	0x3e54e37d	0.20789905
183	0x3e0bece3	0.13664584
184	0x3cd328af	0.025776235
185	0xbe891d98	-0.2678039
186	0xba5fceb4	-0.0008537576
187	0x3c6d4f82	0.014484288
188	0xbd65b2e1	-0.056078795
189	0x3e1685eb	0.14699523
190	0xbbfe90ed	-0.0077687413
191	0xbe0c1cfe	-0.13682935
192	0xbe241014	-0.16021758
193	0x3de7d9ea	0.11320861
194	0x3d3e9924	0.046532765
195	0xbe83977f	-0.2570152
196	0x3d4e7063	0.05040015
197	0xbe683b72	-0.22678927
198	0x3d6e24c9	0.05814055
199	0xbd1787f9	-0.036994908
200	0xbdd92e79	-0.10604567
201	0x3e282c81	0.16423227
202	0x3d5e86d3	0.054327797
203	0x3e40cfc0	0.1882925
204	0x3e28a128	0.16467726
205	0xbd82a392	-0.06378855
206	0x3d37164a	0.04469899
207	0x3e5f33cd	0.21797104
208	0x3e2087ce	0.15676805
209	0xbb9f9710	-0.004870303
210	0xbca60802	-0.02026749
211	0x3dc4729e	0.09592174
212	0xbd3f467a	-0.04669807
213	0xbc5521a9	-0.0130085135
214	0xbe014fb9	-0.12628068
215	0xbe12c656	-0.14333472
216	0xbd8e5cab	-0.06951269
217	0x3d5b5157	0.05354437
218	0xbdb324b2	-0.087472335
219	0xbd1a1ec8	-0.03762701
220	0xbda32d9b	-0.07967683
221	0x3b89ad58	0.0042015724
222	0xbcf2bd62	-0.02963132
223	0xbd431bb1	-0.04763383
224	0xbb976e88	-0.0046213306
225	0x3cc6c270	0.024262637
226	0xbdd70f33	-0.10500946
227	0xbcdb6b42	-0.026784543
228	0xbd55b439	-0.052173827
229	0x3d460d1d	0.04835235
230	0x3e5782c6	0.2104598
231	0xbca85de9	-0.020552592
232	0xbcf65736	-0.030070882
233	0x3dd64f2f	0.10464322
234	0xbd106002	-0.03524781
235	0x3bfb2ab7	0.007665004
236	0xbda78b57	-0.08180874
237	0xbdd1a8c2	-0.10237266
238	0xbb147b94	-0.0022656666
239	0x3d7a13aa	0.06105391
240	0xbd1713e7	-0.036884215
241	0x3e4c1037	0.1992806
242	0xbda75232	-0.081699744
243	0xbe6184f3	-0.22023372
244	0xbd587fec	-0.05285637
245	0xbc055842	-0.008138718
246	0x3e0d5e2f	0.1380546
247	0x3b256d42	0.0025242125
248	0x3d4e43d8	0.05035767
249	0xbdefbad2	-0.11705555
250	0xbe016e7f	-0.12639807
251	0xbe3d0276	-0.1845797
252	0x3e06b011	0.13153102
253	0x3cf8e150	0.030380875
254	0xbc8b083c	-0.0169717
255	0xbdd37c31	-0.10326422

model.2.bias f4 [256]
0	0x00000000	0.0
1	0x00000000	0.0
2	0x00000000	0.0
3	0x00000000	0.0
4	0x00000000	0.0
5	0x00000000	0.0
6	0x00000000	0.0
7	0x00000000	0.0
8	0x00000000	0.0
9	0x00000000	0.0
10	0x00000000	0.0
11	0x00000000	0.0
12	0x00000000	0.0
13	0x00000000	0.0
14	0x00000000	0.0
15	0x00000000	0.0
16	0x00000000	0.0
17	0x00000000	0.0
18	0x00000000	0.0
19	0x00000000	0.0
20	0x00000000	0.0
21	0x00000000	0.0
22	0x00000000	0.0
23	0x00000000	0.0
24	0x00000000	0.0
25	0x00000000	0.0
26	0x00000000	0.0
27	0x00000000	0.0
28	0x00000000	0.0
29	0x00000000	0.0
30	0x00000000	0.0
31	0x00000000	0.0
32	0x00000000	0.0
33	0x00000000	0.0
34	0x00000000	0.0
35	0x00000000	0.0
36	0x00000000	0.0
37	0x00000000	0.0
38	0x00000000	0.0
39	0x00000000	0.0
40	0x00000000	0.0
41	0x00000000	0.0
42	0x00000000	0.0
43	0x00000000	0.0
44	0x00000000	0.0
45	0x00000000	0.0
46	0x00000000	0.0
47	0x00000000	0.0
48	0x00000000	0.0
49	0x00000000	0.0
50	0x00000000	0.0
51	0x00000000	0.0
52	0x00000000	0.0
53	0x00000000	0.0
54	0x00000000	0.0
55	0x00000000	0.0
56	0x00000000	0.0
57	0x00000000	0.0
58	0x00000000	0.0
59	0x00000000	0.0
60	0x00000000	0.0
61	0x00000000	0.0
62	0x00000000	0.0
63	0x00000000	0.0
64	0x00000000	0.0
65	0x00000000	0.0
66	0x00000000	0.0
67	0x00000000	0.0
68	0x00000000	0.0
69	0x00000000	0.0
70	0x00000000	0.0
71	0x00000000	0.0
72	0x00000000	0.0
73	0x00000000	0.0
74	0x00000000	0.0
75	0x00000000	0.0
76	0x00000000	0.0
77	0x00000000	0.0
78	0x00000000	0.0
79	0x00000000	0.0
80	0x00000000	0.0
81	0x00000000	0.0
82	0x00000000	0.0
83	0x00000000	0.0
84	0x00000000	0.0
85	0x00000000	0.0
86	0x00000000	0.0
87	0x00000000	0.0
88	0x00000000	0.0
89	0x00000000	0.0
90	0x00000000	0.0
91	0x00000000	0.0
92	0x00000000	0.0
93	0x00000000	0.0
94	0x00000000	0.0
95	0x00000000	0.0
96	0x00000000	0.0
97	0x00000000	0.0
98	0x00000000	0.0
99	0x00000000	0.0
100	0x00000000	0.0
101	0x00000000	0.0
102	0x00000000	0.0
103	0x00000000	0.0
104	0x00000000	0.0
105	0x00000000	0.0
106	0x00000000	0.0
107	0x00000000	0.0
108	0x00000000	0.0
109	0x00000000	0.0
110	0x00000000	0.0
111	0x00000000	0.0
112	0x00000000	0.0
113	0x00000000	0.0
114	0x00000000	0.0
115	0x00000000	0.0
116	0x00000000	0.0
117	0x00000000	0.0
118	0x00000000	0.0
119	0x00000000	0.0
120	0x00000000	0.0
121	0x00000000	0.0
122	0x00000000	0.0
123	0x00000000	0.0
124	0x00000000	0.0
125	0x00000000	0.0
126	0x00000000	0.0
127	0x00000000	0.0
128	0x00000000	0.0
129	0x00000000	0.0
130	0x00000000	0.0
131	0x00000000	0.0
132	0x00000000	0.0
133	0x00000000	0.0
134	0x00000000	0.0
135	0x00000000	0.0
136	0x00000000	0.0
137	0x00000000	0.0
138	0x00000000	0.0
139	0x00000000	0.0
140	0x00000000	0.0
141	0x00000000	0.0
142	0x00000000	0.0
143	0x00000000	0.0
144	0x00000000	0.0
145	0x00000000	0.0
146	0x00000000	0.0
147	0x00000000	0.0
148	0x00000000	0.0
149	0x00000000	0.0
150	0x00000000	0.0
151	0x00000000	0.0
152	0x00000000	0.0
153	0x00000000	0.0
154	0x00000000	0.0
155	0x00000000	0.0
156	0x00000000	0.0
157	0x00000000	0.0
158	0x00000000	0.0
159	0x00000000	0.0
160	0x00000000	0.0
161	0x00000000	0.0
162	0x00000000	0.0
163	0x00000000	0.0
164	0x00000000	0.0
165	0x00000000	0.0
166	0x00000000	0.0
167	0x00000000	0.0
168	0x00000000	0.0
169	0x00000000	0.0
170	0x00000000	0.0
171	0x00000000	0.0
172	0x00000000	0.0
173	0x00000000	0.0
174	0x00000000	0.0
175	0x00000000	0.0
176	0x00000000	0.0
177	0x00000000	0.0
178	0x00000000	0.0
179	0x00000000	0.0
180	0x00000000	0.0
181	0x00000000	0.0
182	0x00000000	0.0
183	0x00000000	0.0
184	0x00000000	0.0
185	0x00000000	0.0
186	0x00000000	0.0
187	0x00000000	0.0
188	0x00000000	0.0
189	0x00000000	0.0
190	0x00000000	0.0
191	0x00000000	0.0
192	0x00000000	0.0
193	0x00000000	0.0
194	0x00000000	0.0
195	0x00000000	0.0
196	0x00000000	0.0
197	0x00000000	0.0
198	0x00000000	0.0
199	0x00000000	0.0
200	0x00000000	0.0
201	0x00000000	0.0
202	0x00000000	0.0
203	0x00000000	0.0
204	0x00000000	0.0
205	0x00000000	0.0
206	0x00000000	0.0
207	0x00000000	0.0
208	0x00000000	0.0
209	0x00000000	0.0
210	0x00000000	0.0
211	0x00000000	0.0
212	0x00000000	0.0
213	0x00000000	0.0
214	0x00000000	0.0
215	0x00000000	0.0
216	0x00000000	0.0
217	0x00000000	0.0
218	0x00000000	0.0
219	0x00000000	0.0
220	0x00000000	0.0
221	0x00000000	0.0
222	0x00000000	0.0
223	0x00000000	0.0
224	0x00000000	0.0
225	0x00000000	0.0
226	0x00000000	0.0
227	0x00000000	0.0
228	0x00000000	0.0
229	0x00000000	0.0
230	0x00000000	0.0
231	0x00000000	0.0
232	0x00000000	0.0
233	0x00000000	0.0
234	0x00000000	0.0
235	0x00000000	0.0
236	0x00000000	0.0
237	0x00000000	0.0
238	0x00000000	0.0
239	0x00000000	0.0
240	0x00000000	0.0
241	0x00000000	0.0
242	0x00000000	0.0
243	0x00000000	0.0
244	0x00000000	0.0
245	0x00000000	0.0
246	0x00000000	0.0
247	0x00000000	0.0
248	0x00000000	0.0
249	0x00000000	0.0
250	0x00000000	0.0
251	0x00000000	0.0
252	0x00000000	0.0
253	0x00000000	0.0
254	0x00000000	0.0
255	0x00000000	0.0

model.4.weight f4 [8, 256]
0	0x3d88db6b	0.06682476
1	0xbd5ea948	-0.054360658
2	0x3d0a1394	0.033710077
3	0x3cffa79c	0.031207852
4	0x3b9d7c42	0.0048060725
5	0xbdb1f2d3	-0.08688893
6	0x3d6ed502	0.05830861
7	0xbde7f6cb	-0.11326369
8	0xbc2a557a	-0.010396356
9	0xbdc4957e	-0.09598826
10	0xbd976b39	-0.07393498
11	0xbdcc3bde	-0.09972356
12	0xbda89912	-0.08232321
13	0xbe019790	-0.12655473
14	0xbd80f16d	-0.06296048
15	0x3cd766e3	0.026294177
16	0x3db7d659	0.089764304
17	0x3da30561	0.0796001
18	0x3e1fe238	0.1561364
19	0xbdc640e3	-0.09680345
20	0xbd1a1385	-0.03761627
21	0x3d9e6b2c	0.07735285
22	0xbd3e8526	-0.0465137
23	0x3dbb20b0	0.09137094
24	0x3c5a254a	0.0133145545
25	0xbdde929a	-0.10867806
26	0xbd5fbe27	-0.054624703
27	0xbd45dea6	-0.048308037
28	0xbde05a32	-0.109547034
29	0x3ddbcc4c	0.10732326
30	0xbe0f3ffb	-0.1398925
31	0x3e38bd61	0.18040992
32	0xbdc51628	-0.096233666
33	0xbd090bb9	-0.033458445
34	0x3e2051a1	0.15656139
35	0xbc8c69fd	-0.017140383
36	0xbdd3f715	-0.103498615
37	0x3dd601f1	0.10449589
38	0x3c7e517a	0.015522355
39	0xb9168346	-0.00014354018
40	0x3d978223	0.073978685
41	0x3ccfe9ce	0.025380041
42	0x3dc36c56	0.09542148
43	0x3ca72010	0.02040103
44	0x3cf4d325	0.029885838
45	0xbddd9d52	-0.10821022
46	0x3e2ac473	0.16676502
47	0xbc858491	-0.016298564
48	0xbd985069	-0.07437212
49	0xbd7be40a	-0.061496772
50	0xbe3af870	-0.18258834
51	0xbcfca162	-0.030838672
52	0x3d9498a4	0.072556764
53	0xbc8fb91f	-0.017544327
54	0xbe0b094d	-0.13577767
55	0xbd0a6374	-0.033786252
56	0x3b3e02c1	0.002899334
57	0xbbfcfd54	-0.0077206288
58	0x3ca5a445	0.020219931
59	0x3db6499a	0.08900757
60	0xbd32a358	-0.043612808
61	0xbce8ab8c	-0.028402112
62	0xbbfba77b	-0.0076798773
63	0x3e4dc41e	0.20094344
64	0xbca3633b	-0.019944778
65	0xbd34977a	-0.04408977
66	0x3cf4a359	0.029863046
67	0x3d52b5ab	0.051442783
68	0x3dc1aa09	0.0945626
69	0x3ccaa88a	0.024738569
70	0x3cfeca24	0.031102248
71	0x3d373545	0.044728536
72	0xbdac2cf2	-0.0840701
73	0x3d7729ea	0.060342707
74	0xbad962f0	-0.0016585272
75	0x3b086978	0.0020814817
76	0x3d8330f8	0.064058244
77	0xbba22d34	-0.0049492363
78	0x3e034023	0.12817435
79	0x3dadac17	0.08480089
80	0xbc9a33d1	-0.018823536
81	0x398522da	0.00025393703
82	0xbcff4c2f	-0.031164257
83	0x3db9644f	0.090523355
84	0xbe45dc79	-0.19322385
85	0xbd3e8a01	-0.04651833
86	0x3dd62ab3	0.10457363
87	0xbd417730	-0.047232807
88	0x3dd5c6f4	0.10438338
89	0xbd20d93f	-0.039269682
90	0x3de3a1d3	0.1111485
91	0xbc8eed8a	-0.017447252
92	0x3bb5a6a8	0.0055435486
93	0xbda29c57	-0.07939976
94	0xbd705310	-0.058672965
95	0xbce9d08b	-0.028541824
96	0x3e423e09	0.18968977
97	0xb81873b9	-3.63474e-05
98	0x3dfe5b5d	0.1241977
99	0x3c59a717	0.013284466
100	0xbe1d62f9	-0.15369786
101	0xbc135e39	-0.008994632
102	0x3b746cd8	0.0037296321
103	0xbcef46da	-0.02920859
104	0x3e3a225b	0.18177168
105	0x3e010d10	0.12602639
106	0xbb43de76	-0.0029887236
107	0xbd07c918	-0.033150762
108	0x3d35f87d	0.04442643
109	0x3b6fc0f0	0.0036583506
110	0x3d6bc680	0.05756235
111	0x3e40a438	0.18812644
112	0xbd972032	-0.07379188
113	0xbcf2d122	-0.029640738
114	0xbe24915e	-0.16071078
115	0x3d91d1a3	0.07120063
116	0x3d5947c4	0.053046957
117	0xbd4913d9	-0.049091194
118	0x3d6fed4e	0.05857592
119	0x3d9ecdd0	0.07754099
120	0xbd9dffc2	-0.077147976
121	0x3d559906	0.052147888
122	0x3dfbaca4	0.12288788
123	0xbd4a40ca	-0.049378194
124	0x3b6cb35c	0.0036117649
125	0xbe5a6bdb	-0.21330206
126	0x3d7b3600	0.061330795
127	0xbdef84f9	-0.116952844
128	0x3c29e8ee	0.010370476
129	0x3dc67bc8	0.09691578
130	0xbdc3400a	-0.09533699
131	0xbc27ebb8	-0.010249071
132	0xbdd47c3e	-0.1037526
133	0x3df6c46c	0.12049183
134	0xbd16ccc2	-0.036816366
135	0xbd5d2fd7	-0.0540007
136	0xbd9b780e	-0.07591258
137	0x3d4d29ae	0.050088577
138	0x3dc1722e	0.09445606
139	0x3cb23ede	0.021758493
140	0x3ba09145	0.00490013
141	0xbb921e78	-0.0044591986
142	0xbae1e965	-0.0017235695
143	0x3d89d786	0.06730561
144	0xbde4b5c8	-0.111674845
145	0xbce0c48c	-0.02743747
146	0xb66b1feb	-3.5036308e-06
147	0x3ce3429a	0.027741719
148	0x3da01451	0.07816375
149	0xbd8390df	-0.06424116
150	0x3ca2cd82	0.019873384
151	0xbdc16052	-0.094422
152	0xbe1b6fe8	-0.15179408
153	0x3c928b71	0.017888756
154	0x3c5a58d7	0.013326845
155	0x3bbbd5bb	0.0057322658
156	0x3c7a7b1c	0.015288141
157	0x3d17f0c9	0.037094865
158	0xbc41584b	-0.011800836
159	0xbdc210ef	-0.09475886
160	0xbd81be70	-0.06335151
161	0x3dd93940	0.10606623
162	0x3e10e23e	0.14148805
163	0xbe0b1bcc	-0.13584822
164	0x3cf1f1cd	0.029534245
165	0xbd5274d3	-0.051380944
166	0x3b8276f8	0.0039814673
167	0x3c36142b	0.011113207
168	0xbda9174c	-0.08256397
169	0xbcea859a	-0.02862816
170	0x3d503ea6	0.050840996
171	0xbd4a8832	-0.049446292
172	0x3e1a8bf5	0.15092452
173	0xbe0eff4c	-0.13964576
174	0xbd83877b	-0.06422325
175	0x3a91bd12	0.0011118969
176	0xbe040883	-0.12893872
177	0xbb2ad590	-0.0026067235
178	0x3d71cd20	0.059033513
179	0x3cff68b7	0.031177862
180	0xbe0102c6	-0.12598714
181	0xbc71a509	-0.01474882
182	0x3c1faac8	0.009745307
183	0xbc34708c	-0.011013161
184	0xbc84baff	-0.016202448
185	0x3d62a418	0.055332273
186	0xbd0b9b5b	-0.034083705
187	0xba19c236	-0.00058654265
188	0xbdadba85	-0.084828414
189	0x3e5a1a9f	0.21299218
190	0x3e45b80d	0.19308491
191	0x3d904af3	0.070455454
192	0xbe5a9931	-0.213475
193	0xbd2722d3	-0.040804695
194	0x3ba079ed	0.004897347
195	0xbdcfda73	-0.10149088
196	0x3d32c293	0.04364259
197	0x3d59fb3e	0.05321812
198	0xbe0bca4d	-0.1365139
199	0xbd8b375e	-0.0679767
200	0x3d186bb5	0.037212092
201	0x3d9c28b6	0.076249525
202	0xbda32031	-0.079651244
203	0x3db949bd	0.090472676
204	0xbe05dc35	-0.13072284
205	0xbd6fbb4b	-0.058528226
206	0xbd4953a6	-0.04915204
207	0xbdc6d949	-0.097094126
208	0xbd9fdca6	-0.07805757
209	0xbe67182c	-0.22567815
210	0x3d1c28fd	0.038125027
211	0xbce32996	-0.02772979
212	0xbe02b197	-0.12763058
213	0x3dc0569d	0.0939152
214	0xbbca097e	-0.0061656823
215	0xbe0c958a	-0.1372892
216	0xbb6cfdd8	-0.0036162045
217	0xbc521c38	-0.012824111
218	0x3d42ca8b	0.04755644
219	0xbd7d0c5e	-0.061779372
220	0xbe835fdf	-0.2565908
221	0xbe3a5d7c	-0.18199724
222	0xbdda2190	-0.10650933
223	0xbd887872	-0.06663598
224	0xbd9b9a40	-0.0759778
225	0x3d505728	0.05086437
226	0xbd8a388f	-0.06749069
227	0xbd8ad01c	-0.06777975
228	0xbd14fd14	-0.036374167
229	0xbd1bbf3b	-0.03802417
230	0x3de4936b	0.1116093
231	0x3e06a3cf	0.13148426
232	0x3d0c7ea4	0.03430046
233	0xbdd4c150	-0.10388434
234	0x3d655c6c	0.055996343
235	0x3d3c8c21	0.046032075
236	0x3e2ff7c0	0.17184353
237	0xbd54277c	-0.051795468
238	0xbd22552a	-0.039632
239	0xbd318740	-0.043341875
240	0x3d8ba2c1	0.06818152
241	0xbd888755	-0.066664375
242	0xbd2a4797	-0.04157218
243	0x3d29b967	0.04143658
244	0x3d290303	0.041262638
245	0x3debadbb	0.11507746
246	0xbdd5bc71	-0.10436333
247	0xbc8e5628	-0.017375067
248	0xbe11faf8	-0.14255893
249	0x3da4e693	0.08051791
250	0xbcbda2aa	-0.023148853
251	0xbe0117ce	-0.12606737
252	0xbd028190	-0.03186184
253	0xbc96da1f	-0.018414555
254	0xbcf19214	-0.0294886
255	0xbd16e249	-0.036836896

model.4.bias f4 [8]
0	0x00000000	0.0
1	0x00000000	0.0
2	0x00000000	0.0
3	0x00000000	0.0
4	0x00000000	0.0
5	0x00000000	0.0
6	0x00000000	0.0
7	0x00000000	0.0

model.0.weight f4 [256, 19]
0	0x3e82ed97	0.25571892
1	0xbdc1c7a2	-0.09461905
2	0x3ee3e6a0	0.4451189
3	0xbd5b1417	-0.053485956
4	0xbe48322d	-0.1955039
5	0xbecd5d86	-0.40110415
6	0x3f0681b2	0.5254165
7	0xbd102678	-0.035192937
8	0xbe8d0bca	-0.27548057
9	0x3ec7c9ff	0.39021298
10	0xbe04b5d0	-0.12959981
11	0xbea49926	-0.32148093
12	0xbeb64d56	-0.35605878
13	0xbd0562c2	-0.032564886
14	0xbc51801b	-0.01278689
15	0xbd0e9c2b	-0.034816902
16	0xbe6e02ed	-0.23243304
17	0x3ec7f781	0.39056018
18	0x3e18dd9b	0.14928286
19	0x3e725fb8	0.23669326
20	0x3e12b224	0.14325768
21	0x3e699e02	0.22814181
22	0x3ea18393	0.31545696
23	0x3d401592	0.04689557
24	0xbd20ab19	-0.03922567
25	0x3eac26ee	0.3362345
26	0x3f3ca6f0	0.73692226
27	0x3b9734f5	0.0046144673
28	0xbeaad95f	-0.33368966
29	0xbeb49088	-0.3526652
30	0x3e396ac1	0.1810713
31	0xbe11a3a6	-0.14222583
32	0x3d5e4844	0.054268137
33	0x3d66f15d	0.056382526
34	0x3e39f41e	0.1815953
35	0x3db69d13	0.08916678
36	0x3f0bbc71	0.54584414
37	0x3ea66f24	0.3250667
38	0x3b399d31	0.0028322453
39	0x3e3474d8	0.17622697
40	0x3e5a81bd	0.21338554
41	0xbcfcc3e1	-0.030855121
42	0x3de4a144	0.111635715
43	0xbeef5e87	-0.46751806
44	0xbecbf8be	-0.39838213
45	0xbeffa86b	-0.4993318
46	0xbc8ab769	-0.01693316
47	0xbdfc8aaa	-0.123311356
48	0xbf15dc8e	-0.58539665
49	0xbf4bc473	-0.7959663
50	0xbf0120a5	-0.50440437
51	0xbeb05d4b	-0.34446177
52	0xbb8016f7	-0.0039089876
53	0x3e73a18f	0.23792098
54	0x3e27ca08	0.16385663
55	0x3e4027a2	0.18765119
56	0x3e638cbd	0.22221656
57	0xbf13d14d	-0.5774124
58	0x3eab887b	0.33502564
59	0x3ef9e90e	0.4881062
60	0x3eb96c72	0.3621555
61	0xbdffa8f3	-0.124833964
62	0x3e321756	0.17391714
63	0xbeb035df	-0.344161
64	0x3f0cd204	0.5500796
65	0x3e272077	0.16320978
66	0x3e2e5fdb	0.17028753
67	0xbd8dfdf6	-0.06933205
68	0x3e3bf01d	0.18353315
69	0x3e8a207b	0.26977906
70	0x3ebbaa0c	0.36653173
71	0xbaa736e7	-0.0012757451
72	0x3dac777e	0.08421229
73	0xbefbc6cd	-0.4917511
74	0x3f4f34ad	0.8093975
75	0x3e673868	0.22580111
76	0xbe25a88d	-0.16177578
77	0xbeb74e6c	-0.3580202
78	0x3e0c5895	0.13705666
79	0xbdf7ec25	-0.12105588
80	0x3e7c87bd	0.24661155
81	0x3e658273	0.22413044
82	0xbcd24629	-0.02566822
83	0xbe0537ea	-0.13009611
84	0xbd0cb0e0	-0.03434837
85	0x3df37e2c	0.118893
86	0x3d14760b	0.036245387
87	0xbe0c19cc	-0.13681716
88	0xbe1aab80	-0.15104485
89	0xbaddd509	-0.0016924451
90	0xbdf043cd	-0.11731682
91	0xbe583dc5	-0.21117313
92	0xbd8666e9	-0.06562597
93	0xbe3930b4	-0.18084985
94	0x3eba0e6e	0.36339134
95	0xbdfd7945	-0.12376646
96	0xbd812cf6	-0.06307404
97	0x3e4abd44	0.19798762
98	0xbda590ca	-0.08084257
99	0x3e8a49cd	0.2700943
100	0xbecde4e2	-0.40213686
101	0xbe235116	-0.159489
102	0xbf0f6433	-0.56012267
103	0xbd990b87	-0.07472902
104	0x3f0467eb	0.51721066
105	0xbe851752	-0.25994354
106	0x3e2ae359	0.16688289
107	0xbf29b5b8	-0.66292906
108	0xbe08109a	-0.13287583
109	0xbefd8f41	-0.49523357
110	0x3f105a4e	0.56387794
111	0xbed8d576	-0.42350358
112	0x3ee1549f	0.44009873
113	0x3ede7065	0.43445125
114	0xbed6c7ab	-0.4194921
115	0xbf0c950d	-0.54914933
116	0x3e9d5e97	0.3073623
117	0x3e7a1faa	0.24426141
118	0x3e4c8c9b	0.19975512
119	0x3eebcf99	0.46056822
120	0xbe497304	-0.19672781
121	0xbef0b7b2	-0.47015148
122	0x3e4302da	0.19044057
123	0xbe797f36	-0.24364933
124	0xbdc33a5b	-0.09532615
125	0x3ea1a200	0.3156891
126	0x3d8966e9	0.06709082
127	0x3d970c51	0.07375396
128	0x3f18177f	0.5941085
129	0xbe47d94d	-0.19516487
130	0xbeb42215	-0.35182253
131	0xbe3a7550	-0.18208814
132	0xbc3b49eb	-0.011431198
133	0xbeaad78b	-0.3336757
134	0x3da95b97	0.082694225
135	0xbb35da02	-0.002774835
136	0x3ed30313	0.41213283
137	0x3e06882c	0.13137883
138	0xbb86e754	-0.004116932
139	0xbe51ba48	-0.20481217
140	0xbf2cefde	-0.6755351
141	0xbe8b48a2	-0.27203852
142	0x3ebcaebd	0.36852065
143	0x3e8116f3	0.2521282
144	0xbedfefa0	-0.43737507
145	0xbe4534bf	-0.19258402
146	0x3db82a26	0.08992414
147	0x3ec70670	0.388721
148	0xbcdc50f4	-0.02689407
149	0xbdc9d856	-0.09855716
150	0xbe4040aa	-0.18774667
151	0xbda8e855	-0.08247439
152	0x3de90ebc	0.113797635
153	0xbe1e23cb	-0.15443341
154	0x3de037d0	0.109481454
155	0xbe0b7f0a	-0.1362268
156	0xbd4cb4d4	-0.04997714
157	0x3ee83620	0.45353794
158	0xbe6d0f97	-0.23150478
159	0x3e6fd908	0.23422635
160	0xbe477118	-0.19476736
161	0x3de3a79b	0.111159526
162	0xbe1fd611	-0.15609004
163	0x3eed6683	0.46367273
164	0xbf302f53	-0.6882221
165	0xbe0d632a	-0.1380736
166	0xbbc98e83	-0.006151022
167	0xbebcf74f	-0.3690743
168	0xbf418d37	-0.756061
169	0x3df94345	0.12171034
170	0xbe89535d	-0.26821414
171	0x3ea07971	0.31342652
172	0x3e942b7b	0.28939423
173	0x3e38f2a7	0.18061315
174	0x3e916ed6	0.28404874
175	0xbda58c8c	-0.08083448
176	0xbdceb5c4	-0.10093263
177	0xbe15d460	-0.14631796
178	0xbe3e118e	-0.18561384
179	0xbe16aeb5	-0.14715083
180	0x3e9ab6e3	0.30217656
181	0x3f0e0e1e	0.5549029
182	0xbe07592d	-0.13217612
183	0x3d6d7aac	0.057978317
184	0xbeba803f	-0.3642597
185	0xbe733dfc	-0.23754114
186	0x3eb7f08f	0.3592572
187	0xbd42a701	-0.04752255
188	0xbe9cafca	-0.30602866
189	0x3e03365a	0.12813702
190	0xbe54def3	-0.20788173
191	0x3e91bad8	0.28462863
192	0x3e47770e	0.1947901
193	0x3e4c7506	0.19966516
194	0x3e253ea3	0.16137175
195	0x3ead3959	0.33832815
196	0x3ed8835c	0.4228772
197	0x3ea804da	0.328162
198	0x3f27beb2	0.6552535
199	0xbdd5fb7f	-0.1044836
200	0x3de0295c	0.10945389
201	0xbd81f86c	-0.06346211
202	0x3d3a8fdb	0.045547348
203	0x3e264628	0.162377
204	0xbd84c8e7	-0.064836316
205	0x3ed14fd0	0.40881205
206	0x3d068fdd	0.032852042
207	0xbe37ab2c	-0.1793639
208	0x3f0a5cde	0.54047954
209	0xbca91d40	-0.02064383
210	0x3f060e5d	0.52365667
211	0xbf044b2e	-0.51677215
212	0x3eca5eb6	0.39525384
213	0x3f124f04	0.5715182
214	0xbb569c1b	-0.0032746855
215	0xbc5e4d1c	-0.013568189
216	0xbeb668fa	-0.35626966
217	0xbca3fd7c	-0.020018332
218	0x3f16c780	0.5889816
219	0xbe346f55	-0.17620595
220	0x3ec111d6	0.3770892
221	0x3eb5ee0c	0.35533178
222	0x3d08740b	0.033313792
223	0x3d066a1a	0.03281603
224	0xbc9130eb	-0.017723521
225	0xbf2a7bf0	-0.66595364
226	0xbe255334	-0.1614502
227	0x3ec14b56	0.3775279
228	0x3dc0ccb6	0.094140455
229	0x3d4de59d	0.050267804
230	0xbf160848	-0.58606386
231	0x3e77b721	0.24190952
232	0xbe748113	-0.23877363
233	0x3e6931bd	0.2277288
234	0x3e07160e	0.13192007
235	0xbf350d5e	-0.7072352
236	0x3caaa249	0.020829337
237	0xbe88a6dd	-0.26689807
238	0xbea7162b	-0.326341
239	0x3ea8fcbb	0.33005318
240	0xbedac585	-0.4272882
241	0x3e1190b7	0.1421536
242	0xbeb1dbb9	-0.34737948
243	0x3d3364d8	0.043797344
244	0xbe376e72	-0.17913225
245	0x3d49f497	0.049305525
246	0x3eb1c32c	0.34719217
247	0x3f111377	0.56670326
248	0xbe5ce308	-0.2157098
249	0xbed095b2	-0.40739208
250	0xbeca3415	-0.3949286
251	0xbdda0341	-0.10645152
252	0xbe32a296	-0.17444834
253	0xbe3adaa2	-0.18247464
254	0x3ef41b9a	0.47677308
255	0x3f15b384	0.58477044

model.0.bias f4 [256]
0	0x00000000	0.0
1	0x00000000	0.0
2	0x00000000	0.0
3	0x00000000	0.0
4	0x00000000	0.0
5	0x00000000	0.0
6	0x00000000	0.0
7	0x00000000	0.0
8	0x00000000	0.0
9	0x00000000	0.0
10	0x00000000	0.0
11	0x00000000	0.0
12	0x00000000	0.0
13	0x00000000	0.0
14	0x00000000	0.0
15	0x00000000	0.0
16	0x00000000	0.0
17	0x00000000	0.0
18	0x00000000	0.0
19	0x00000000	0.0
20	0x00000000	0.0
21	0x00000000	0.0
22	0x00000000	0.0
23	0x00000000	0.0
24	0x00000000	0.0
25	0x00000000	0.0
26	0x00000000	0.0
27	0x00000000	0.0
28	0x00000000	0.0
29	0x00000000	0.0
30	0x00000000	0.0
31	0x00000000	0.0
32	0x00000000	0.0
33	0x00000000	0.0
34	0x00000000	0.0
35	0x00000000	0.0
36	0x00000000	0.0
37	0x00000000	0.0
38	0x00000000	0.0
39	0x00000000	0.0
40	0x00000000	0.0
41	0x00000000	0.0
42	0x00000000	0.0
43	0x00000000	0.0
44	0x00000000	0.0
45	0x00000000	0.0
46	0x00000000	0.0
47	0x00000000	0.0
48	0x00000000	0.0
49	0x00000000	0.0
50	0x00000000	0.0
51	0x00000000	0.0
52	0x00000000	0.0
53	0x00000000	0.0
54	0x00000000	0.0
55	0x00000000	0.0
56	0x00000000	0.0
57	0x00000000	0.0
58	0x00000000	0.0
59	0x00000000	0.0
60	0x00000000	0.0
61	0x00000000	0.0
62	0x00000000	0.0
63	0x00000000	0.0
64	0x00000000	0.0
65	0x00000000	0.0
66	0x00000000	0.0
67	0x00000000	0.0
68	0x00000000	0.0
69	0x00000000	0.0
70	0x00000000	0.0
71	0x00000000	0.0
72	0x00000000	0.0
73	0x00000000	0.0
74	0x00000000	0.0
75	0x00000000	0.0
76	0x00000000	0.0
77	0x00000000	0.0
78	0x00000000	0.0
79	0x00000000	0.0
80	0x00000000	0.0
81	0x00000000	0.0
82	0x00000000	0.0
83	0x00000000	0.0
84	0x00000000	0.0
85	0x00000000	0.0
86	0x00000000	0.0
87	0x00000000	0.0
88	0x00000000	0.0
89	0x00000000	0.0
90	0x00000000	0.0
91	0x00000000	0.0
92	0x00000000	0.0
93	0x00000000	0.0
94	0x00000000	0.0
95	0x00000000	0.0
96	0x00000000	0.0
97	0x00000000	0.0
98	0x00000000	0.0
99	0x00000000	0.0
100	0x00000000	0.0
101	0x00000000	0.0
102	0x00000000	0.0
103	0x00000000	0.0
104	0x00000000	0.0
105	0x00000000	0.0
106	0x00000000	0.0
107	0x00000000	0.0
108	0x00000000	0.0
109	0x00000000	0.0
110	0x00000000	0.0
111	0x00000000	0.0
112	0x00000000	0.0
113	0x00000000	0.0
114	0x00000000	0.0
115	0x00000000	0.0
116	0x00000000	0.0
117	0x00000000	0.0
118	0x00000000	0.0
119	0x00000000	0.0
120	0x00000000	0.0
121	0x00000000	0.0
122	0x00000000	0.0
123	0x00000000	0.0
124	0x00000000	0.0
125	0x00000000	0.0
126	0x00000000	0.0
127	0x00000000	0.0
128	0x00000000	0.0
129	0x00000000	0.0
130	0x00000000	0.0
131	0x00000000	0.0
132	0x00000000	0.0
133	0x00000000	0.0
134	0x00000000	0.0
135	0x00000000	0.0
136	0x00000000	0.0
137	0x00000000	0.0
138	0x00000000	0.0
139	0x00000000	0.0
140	0x00000000	0.0
141	0x00000000	0.0
142	0x00000000	0.0
143	0x00000000	0.0
144	0x00000000	0.0
145	0x00000000	0.0
146	0x00000000	0.0
147	0x00000000	0.0
148	0x00000000	0.0
149	0x00000000	0.0
150	0x00000000	0.0
151	0x00000000	0.0
152	0x00000000	0.0
153	0x00000000	0.0
154	0x00000000	0.0
155	0x00000000	0.0
156	0x00000000	0.0
157	0x00000000	0.0
158	0x00000000	0.0
159	0x00000000	0.0
160	0x00000000	0.0
161	0x00000000	0.0
162	0x00000000	0.0
163	0x00000000	0.0
164	0x00000000	0.0
165	0x00000000	0.0
166	0x00000000	0.0
167	0x00000000	0.0
168	0x00000000	0.0
169	0x00000000	0.0
170	0x00000000	0.0
171	0x00000000	0.0
172	0x00000000	0.0
173	0x00000000	0.0
174	0x00000000	0.0
175	0x00000000	0.0
176	0x00000000	0.0
177	0x00000000	0.0
178	0x00000000	0.0
179	0x00000000	0.0
180	0x00000000	0.0
181	0x00000000	0.0
182	0x00000000	0.0
183	0x00000000	0.0
184	0x00000000	0.0
185	0x00000000	0.0
186	0x00000000	0.0
187	0x00000000	0.0
188	0x00000000	0.0
189	0x00000000	0.0
190	0x00000000	0.0
191	0x00000000	0.0
192	0x00000000	0.0
193	0x00000000	0.0
194	0x00000000	0.0
195	0x00000000	0.0
196	0x00000000	0.0
197	0x00000000	0.0
198	0x00000000	0.0
199	0x00000000	0.0
200	0x00000000	0.0
201	0x00000000	0.0
202	0x00000000	0.0
203	0x00000000	0.0
204	0x00000000	0.0
205	0x00000000	0.0
206	0x00000000	0.0
207	0x00000000	0.0
208	0x00000000	0.0
209	0x00000000	0.0
210	0x00000000	0.0
211	0x00000000	0.0
212	0x00000000	0.0
213	0x00000000	0.0
214	0x00000000	0.0
215	0x00000000	0.0
216	0x00000000	0.0
217	0x00000000	0.0
218	0x00000000	0.0
219	0x00000000	0.0
220	0x00000000	0.0
221	0x00000000	0.0
222	0x00000000	0.0
223	0x00000000	0.0
224	0x00000000	0.0
225	0x00000000	0.0
226	0x00000000	0.0
227	0x00000000	0.0
228	0x00000000	0.0
229	0x00000000	0.0
230	0x00000000	0.0
231	0x00000000	0.0
232	0x00000000	0.0
233	0x00000000	0.0
234	0x00000000	0.0
235	0x00000000	0.0
236	0x00000000	0.0
237	0x00000000	0.0
238	0x00000000	0.0
239	0x00000000	0.0
240	0x00000000	0.0
241	0x00000000	0.0
242	0x00000000	0.0
243	0x00000000	0.0
244	0x00000000	0.0
245	0x00000000	0.0
246	0x00000000	0.0
247	0x00000000	0.0
248	0x00000000	0.0
249	0x00000000	0.0
250	0x00000000	0.0
251	0x00000000	0.0
252	0x00000000	0.0
253	0x00000000	0.0
254	0x00000000	0.0
255	0x00000000	0.0

model.2.weight f4 [256, 256]
0	0xbd74e494	-0.0597883
1	0x3c63dd92	0.013907807
2	0x3ce63ca4	0.028105088
3	0x3d9ad7aa	0.07560666
4	0x3d6179e0	0.05504787
5	0x3ce6f686	0.028193723
6	0x3d57bde2	0.05267132
7	0xbd68120d	-0.05665784
8	0xbce0fda1	-0.02746469
9	0x3d337feb	0.043823164
10	0x3dbdc4e4	0.092660695
11	0x3d88067e	0.06641863
12	0xbb948a0f	-0.0045330594
13	0xbdaba965	-0.08381919
14	0x3d30202d	0.042999435
15	0xbd26b823	-0.04070295
16	0x3d2b9bd3	0.041896652
17	0x3e0772df	0.13227414
18	0xbd25880b	-0.040412944
19	0x3e04ca5f	0.12967823
20	0x3df69141	0.12039424
21	0x3e64f0f4	0.22357541
22	0x3dd86b91	0.10567392
23	0x3e0c270c	0.1368677
24	0xbc4135b9	-0.011792594
25	0x3c9fd093	0.019508636
26	0x3e2afd4f	0.16698192
27	0x3b18b36d	0.0023300305
28	0x3dbeaf52	0.093107834
29	0x3e13a883	0.14419751
30	0xbcf0338f	-0.02932146
31	0x3d668bad	0.05628555
32	0x3de9c72b	0.114149414
33	0x3d19b4f1	0.037526075
34	0xbd20e923	-0.039284837
35	0xbe20c68b	-0.15700738
36	0xbe24e54a	-0.16103092
37	0x3bbe4e5d	0.0058076815
38	0xbd8da877	-0.06916898
39	0x3cfb5cf1	0.030683966
40	0xbda132fc	-0.078710526
41	0x3bbde0bc	0.0057946127
42	0xbe6559dc	-0.2239756
43	0xbda3484f	-0.07972776
44	0x3d92705b	0.07150336
45	0xbd76cec5	-0.060255785
46	0x3c258958	0.010103546
47	0x3cb52ce1	0.022116126
48	0xbc1dc863	-0.009630295
49	0xb98e70a9	-0.0002716829
50	0x3da511ba	0.08060022
51	0x3deb74fb	0.11496922
52	0xbe660427	-0.22462521
53	0xbb355fe1	-0.0027675556
54	0x3c64baad	0.013960523
55	0x3e09dae4	0.13462406
56	0x3e29550b	0.16536348
57	0xbd6a1f31	-0.057158653
58	0xbc385580	-0.011250854
59	0xbd3906dd	-0.04517256
60	0xbd018945	-0.03162505
61	0xbd027061	-0.031845454
62	0x3cfbb6f4	0.030726887
63	0x3e371279	0.1787814
64	0xbe132bd5	-0.1437219
65	0x3ce15204	0.027504928
66	0x3d8874af	0.06662881
67	0x3d82e8af	0.06392037
68	0xbd8811ee	-0.06644045
69	0x3d969d08	0.0735417
70	0x3c8b91a6	0.017037224
71	0xbc5463a9	-0.012963214
72	0xbca86e84	-0.02056051
73	0xbda96b13	-0.08272376
74	0x3da87cd1	0.08226932
75	0x3d19de88	0.037565738
76	0x3d2e6df5	0.042585332
77	0x3e4c223f	0.19934939
78	0xbce62f02	-0.028098587
79	0xbe085e01	-0.1331711
80	0x3d52f988	0.051507503
81	0x3dedd962	0.11613728
82	0x3c4f4449	0.012650558
83	0xbdbdee9e	-0.09274028
84	0xbd209236	-0.039201938
85	0x3dc2bc3b	0.09508558
86	0x399748b7	0.0002885514
87	0xbd258492	-0.040409632
88	0x3d681d78	0.05666873
89	0xbde9c6ec	-0.114148945
90	0x3cb37fb0	0.021911472
91	0xbdc3e1e7	-0.09564572
92	0x39b929ed	0.00035317187
93	0x3c711c17	0.01471617
94	0x3d8c4f66	0.068510816
95	0x3cde8f0e	0.027167823
96	0x3ca9a824	0.020710059
97	0xbd3bdc20	-0.045864224
98	0x3d6d7124	0.057969227
99	0xbdb5dd19	-0.08880062
100	0xbc5db281	-0.013531328
101	0xbd47a387	-0.048739936
102	0xbdc6785f	-0.09690928
103	0x3db3310b	0.087495886
104	0xbda0e23b	-0.0785565
105	0xbc5fe4af	-0.013665362
106	0xbd9d5071	-0.076813586
107	0xbdb2c36c	-0.0872868
108	0x3dfdce3b	0.12392851
109	0xbdbab127	-0.091158204
110	0xbdd6c868	-0.10487443
111	0xbde436ba	-0.11143251
112	0x3dbbc722	0.09168841
113	0xbcdc79da	-0.026913572
114	0xbc4491f4	-0.011997689
115	0xbc963936	-0.018337827
116	0x3d462088	0.048370868
117	0xbbd9d48d	-0.0066476525
118	0xbd872293	-0.065983914
119	0xbddcdf16	-0.10784738
120	0x3e7a19a1	0.24423839
121	0xbdb33022	-0.08749415
122	0x3c03bc93	0.008040565
123	0xbd533708	-0.051566154
124	0x3dbc8dc7	0.092067294
125	0x3d85a1d8	0.0652501
126	0xbda6c4ba	-0.08142991
127	0xbd6d1292	-0.05787904
128	0x3e330133	0.17480926
129	0x3c922d01	0.017843725
130	0xbc3aa415	-0.011391659
131	0xbd7f08c8	-0.062264234
132	0x3e10c879	0.14138974
133	0x3c88f2de	0.01671737
134	0x3d06160c	0.03273587
135	0xbdfea602	-0.12434007
136	0x3e0f47ad	0.13992186
137	0x3de6a04e	0.112610444
138	0xbde8d611	-0.11368955
139	0xbd89d901	-0.06730843
140	0xbe1c9434	-0.1529091
141	0xbdd2a9ec	-0.10286316
142	0xbd30b501	-0.04314137
143	0x3d45ce49	0.048292432
144	0x3ca1f24d	0.019768858
145	0x3e060fa9	0.13091911
146	0x3d9b397e	0.07579325
147	0x3d806b1c	0.062704295
148	0xbdd48252	-0.10376419
149	0xbd94046b	-0.07227405
150	0x3e18dc27	0.14927731
151	0xbd98e949	-0.074663706
152	0xbd595a97	-0.05306491
153	0xbccbbfb0	-0.024871677
154	0xbd9659ea	-0.073413685
155	0xbd03ad67	-0.03214779
156	0x3d853c2f	0.0650562
157	0xbdf865aa	-0.12128766
158	0xbdf351a2	-0.118808046
159	0x3d60fb0e	0.054926924
160	0x3e0b0746	0.13576993
161	0xbdceb401	-0.10092927
162	0xbdb656f8	-0.08903307
163	0x3d84f8b8	0.06492752
164	0x3d81aedd	0.06332181
165	0xb9d9c16a	-0.0004153357
166	0xbc22bbdf	-0.009932487
167	0x3de47f0a	0.11157043
168	0x3dc95f74	0.09832659
169	0xbdce1960	-0.10063434
170	0xbc925a2c	-0.017865263
171	0xbd2e600f	-0.042572077
172	0x3cdc52a0	0.026894867
173	0x3e0506dd	0.129909
174	0x3de9d8f2	0.11418332
175	0xbd0643f4	-0.03277965
176	0x3bdb7903	0.0066977753
177	0xb965e808	-0.0002192558
178	0xbdf2515b	-0.118319236
179	0x3c8c33b3	0.017114496
180	0x3dd32478	0.1030969
181	0xbbcc54c8	-0.0062356927
182	0x3e54e37d	0.20789905
183	0x3e0bece3	0.13664584
184	0x3cd328af	0.025776235
185	0xbe891d98	-0.2678039
186	0xba5fceb4	-0.0008537576
187	0x3c6d4f82	0.014484288
188	0xbd65b2e1	-0.056078795
189	0x3e1685eb	0.14699523
190	0xbbfe90ed	-0.0077687413
191	0xbe0c1cfe	-0.13682935
192	0xbe241014	-0.16021758
193	0x3de7d9ea	0.11320861
194	0x3d3e9924	0.046532765
195	0xbe83977f	-0.2570152
196	0x3d4e7063	0.05040015
197	0xbe683b72	-0.22678927
198	0x3d6e24c9	0.05814055
199	0xbd1787f9	-0.036994908
200	0xbdd92e79	-0.10604567
201	0x3e282c81	0.16423227
202	0x3d5e86d3	0.054327797
203	0x3e40cfc0	0.1882925
204	0x3e28a128	0.16467726
205	0xbd82a392	-0.06378855
206	0x3d37164a	0.04469899
207	0x3e5f33cd	0.21797104
208	0x3e2087ce	0.15676805
209	0xbb9f9710	-0.004870303
210	0xbca60802	-0.02026749
211	0x3dc4729e	0.09592174
212	0xbd3f467a	-0.04669807
213	0xbc5521a9	-0.0130085135
214	0xbe014fb9	-0.12628068
215	0xbe12c656	-0.14333472
216	0xbd8e5cab	-0.06951269
217	0x3d5b5157	0.05354437
218	0xbdb324b2	-0.087472335
219	0xbd1a1ec8	-0.03762701
220	0xbda32d9b	-0.07967683
221	0x3b89ad58	0.0042015724
222	0xbcf2bd62	-0.02963132
223	0xbd431bb1	-0.04763383
224	0xbb976e88	-0.0046213306
225	0x3cc6c270	0.024262637
226	0xbdd70f33	-0.10500946
227	0xbcdb6b42	-0.026784543
228	0xbd55b439	-0.052173827
229	0x3d460d1d	0.04835235
230	0x3e5782c6	0.2104598
231	0xbca85de9	-0.020552592
232	0xbcf65736	-0.030070882
233	0x3dd64f2f	0.10464322
234	0xbd106002	-0.03524781
235	0x3bfb2ab7	0.007665004
236	0xbda78b57	-0.08180874
237	0xbdd1a8c2	-0.10237266
238	0xbb147b94	-0.0022656666
239	0x3d7a13aa	0.06105391
240	0xbd1713e7	-0.036884215
241	0x3e4c1037	0.1992806
242	0xbda75232	-0.081699744
243	0xbe6184f3	-0.22023372
244	0xbd587fec	-0.05285637
245	0xbc055842	-0.008138718
246	0x3e0d5e2f	0.1380546
247	0x3b256d42	0.0025242125
248	0x3d4e43d8	0.05035767
249	0xbdefbad2	-0.11705555
250	0xbe016e7f	-0.12639807
251	0xbe3d0276	-0.1845797
252	0x3e06b011	0.13153102
253	0x3cf8e150	0.030380875
254	0xbc8b083c	-0.0169717
255	0xbdd37c31	-0.10326422
